…
I0909 13:07:16.467056  2805 net.cpp:322] The NetState phase (0) differed from the phase (1) specified by a rule in layer accuracy
I0909 13:07:16.467170  2805 net.cpp:58] Initializing net from parameters: 
name: "CaffeNet"
state {
  phase: TRAIN
  level: 0
  stage: ""
}
layer {
  name: "data"
  type: "Data"
  top: "data"
  top: "label"
  include {
    phase: TRAIN
  }
  transform_param {
    mirror: true
    crop_size: 227
    mean_file: "/media/ailab/Data/imagenet/imagenet_mean.binaryproto"
  }
  data_param {
    source: "/media/ailab/Data/imagenet/ilsvrc12_train_lmdb"
    batch_size: 256
    backend: LMDB
  }
}
layer {
  name: "conv1"
  type: "Convolution"
  bottom: "data"
  top: "conv1"
  param {
    lr_mult: 1
    decay_mult: 1
  }
  param {
    lr_mult: 2
    decay_mult: 0
  }
  convolution_param {
    num_output: 96
    kernel_size: 11
    stride: 4
    weight_filler {
      type: "gaussian"
      std: 0.01
    }
    bias_filler {
      type: "constant"
      value: 0
    }
  }
}
layer {
  name: "relu1"
  type: "ReLU"
  bottom: "conv1"
  top: "conv1"
}
layer {
  name: "pool1"
  type: "Pooling"
  bottom: "conv1"
  top: "pool1"
  pooling_param {
    pool: MAX
    kernel_size: 3
    stride: 2
  }
}
layer {
  name: "norm1"
  type: "LRN"
  bottom: "pool1"
  top: "norm1"
  lrn_param {
    local_size: 5
    alpha: 0.0001
    beta: 0.75
  }
}
layer {
  name: "conv2"
  type: "Convolution"
  bottom: "norm1"
  top: "conv2"
  param {
    lr_mult: 1
    decay_mult: 1
  }
  param {
    lr_mult: 2
    decay_mult: 0
  }
  convolution_param {
    num_output: 256
    pad: 2
    kernel_size: 5
    group: 2
    weight_filler {
      type: "gaussian"
      std: 0.01
    }
    bias_filler {
      type: "constant"
      value: 1
    }
  }
}
layer {
  name: "relu2"
  type: "ReLU"
  bottom: "conv2"
  top: "conv2"
}
layer {
  name: "pool2"
  type: "Pooling"
  bottom: "conv2"
  top: "pool2"
  pooling_param {
    pool: MAX
    kernel_size: 3
    stride: 2
  }
}
layer {
  name: "norm2"
  type: "LRN"
  bottom: "pool2"
  top: "norm2"
  lrn_param {
    local_size: 5
    alpha: 0.0001
    beta: 0.75
  }
}
layer {
  name: "conv3"
  type: "Convolution"
  bottom: "norm2"
  top: "conv3"
  param {
    lr_mult: 1
    decay_mult: 1
  }
  param {
    lr_mult: 2
    decay_mult: 0
  }
  convolution_param {
    num_output: 384
    pad: 1
    kernel_size: 3
    weight_filler {
      type: "gaussian"
      std: 0.01
    }
    bias_filler {
      type: "constant"
      value: 0
    }
  }
}
layer {
  name: "relu3"
  type: "ReLU"
  bottom: "conv3"
  top: "conv3"
}
layer {
  name: "conv4"
  type: "Convolution"
  bottom: "conv3"
  top: "conv4"
  param {
    lr_mult: 1
    decay_mult: 1
  }
  param {
    lr_mult: 2
    decay_mult: 0
  }
  convolution_param {
    num_output: 384
    pad: 1
    kernel_size: 3
    group: 2
    weight_filler {
      type: "gaussian"
      std: 0.01
    }
    bias_filler {
      type: "constant"
      value: 1
    }
  }
}
layer {
  name: "relu4"
  type: "ReLU"
  bottom: "conv4"
  top: "conv4"
}
layer {
  name: "conv5"
  type: "Convolution"
  bottom: "conv4"
  top: "conv5"
  param {
    lr_mult: 1
    decay_mult: 1
  }
  param {
    lr_mult: 2
    decay_mult: 0
  }
  convolution_param {
    num_output: 256
    pad: 1
    kernel_size: 3
    group: 2
    weight_filler {
      type: "gaussian"
      std: 0.01
    }
    bias_filler {
      type: "constant"
      value: 1
    }
  }
}
layer {
  name: "relu5"
  type: "ReLU"
  bottom: "conv5"
  top: "conv5"
}
layer {
  name: "pool5"
  type: "Pooling"
  bottom: "conv5"
  top: "pool5"
  pooling_param {
    pool: MAX
    kernel_size: 3
    stride: 2
  }
}
layer {
  name: "fc6"
  type: "InnerProduct"
  bottom: "pool5"
  top: "fc6"
  param {
    lr_mult: 1
    decay_mult: 1
  }
  param {
    lr_mult: 2
    decay_mult: 0
  }
  inner_product_param {
    num_output: 4096
    weight_filler {
      type: "gaussian"
      std: 0.005
    }
    bias_filler {
      type: "constant"
      value: 1
    }
  }
}
layer {
  name: "relu6"
  type: "ReLU"
  bottom: "fc6"
  top: "fc6"
}
layer {
  name: "drop6"
  type: "Dropout"
  bottom: "fc6"
  top: "fc6"
  dropout_param {
    dropout_ratio: 0.5
  }
}
layer {
  name: "fc7"
  type: "InnerProduct"
  bottom: "fc6"
  top: "fc7"
  param {
    lr_mult: 1
    decay_mult: 1
  }
  param {
    lr_mult: 2
    decay_mult: 0
  }
  inner_product_param {
    num_output: 4096
    weight_filler {
      type: "gaussian"
      std: 0.005
    }
    bias_filler {
      type: "constant"
      value: 1
    }
  }
}
layer {
  name: "relu7"
  type: "ReLU"
  bottom: "fc7"
  top: "fc7"
}
layer {
  name: "drop7"
  type: "Dropout"
  bottom: "fc7"
  top: "fc7"
  dropout_param {
    dropout_ratio: 0.5
  }
}
layer {
  name: "fc8"
  type: "InnerProduct"
  bottom: "fc7"
  top: "fc8"
  param {
    lr_mult: 1
    decay_mult: 1
  }
  param {
    lr_mult: 2
    decay_mult: 0
  }
  inner_product_param {
    num_output: 1000
    weight_filler {
      type: "gaussian"
      std: 0.01
    }
    bias_filler {
      type: "constant"
      value: 0
    }
  }
}
layer {
  name: "loss"
  type: "SoftmaxWithLoss"
  bottom: "fc8"
  bottom: "label"
  top: "loss"
}
I0909 13:07:16.467279  2805 layer_factory.hpp:77] Creating layer data
I0909 13:07:16.467775  2805 net.cpp:100] Creating Layer data
I0909 13:07:16.467790  2805 net.cpp:408] data -> data
I0909 13:07:16.467813  2805 net.cpp:408] data -> label
I0909 13:07:16.467823  2805 data_transformer.cpp:25] Loading mean file from: /media/ailab/Data/imagenet/imagenet_mean.binaryproto
I0909 13:07:16.468554  2810 db_lmdb.cpp:35] Opened lmdb /media/ailab/Data/imagenet/ilsvrc12_train_lmdb
I0909 13:07:16.510563  2805 data_layer.cpp:41] output data size: 256,3,227,227
I0909 13:07:16.694905  2805 net.cpp:150] Setting up data
I0909 13:07:16.694958  2805 net.cpp:157] Top shape: 256 3 227 227 (39574272)
I0909 13:07:16.694965  2805 net.cpp:157] Top shape: 256 (256)
I0909 13:07:16.694968  2805 net.cpp:165] Memory required for data: 158298112
I0909 13:07:16.694978  2805 layer_factory.hpp:77] Creating layer conv1
I0909 13:07:16.695013  2805 net.cpp:100] Creating Layer conv1
I0909 13:07:16.695019  2805 net.cpp:434] conv1 <- data
I0909 13:07:16.695031  2805 net.cpp:408] conv1 -> conv1
I0909 13:07:16.901346  2805 net.cpp:150] Setting up conv1
I0909 13:07:16.901383  2805 net.cpp:157] Top shape: 256 96 55 55 (74342400)
I0909 13:07:16.901388  2805 net.cpp:165] Memory required for data: 455667712
I0909 13:07:16.901412  2805 layer_factory.hpp:77] Creating layer relu1
I0909 13:07:16.901424  2805 net.cpp:100] Creating Layer relu1
I0909 13:07:16.901430  2805 net.cpp:434] relu1 <- conv1
I0909 13:07:16.901437  2805 net.cpp:395] relu1 -> conv1 (in-place)
I0909 13:07:16.901655  2805 net.cpp:150] Setting up relu1
I0909 13:07:16.901666  2805 net.cpp:157] Top shape: 256 96 55 55 (74342400)
I0909 13:07:16.901670  2805 net.cpp:165] Memory required for data: 753037312
I0909 13:07:16.901674  2805 layer_factory.hpp:77] Creating layer pool1
I0909 13:07:16.901682  2805 net.cpp:100] Creating Layer pool1
I0909 13:07:16.901686  2805 net.cpp:434] pool1 <- conv1
I0909 13:07:16.901692  2805 net.cpp:408] pool1 -> pool1
I0909 13:07:16.901731  2805 net.cpp:150] Setting up pool1
I0909 13:07:16.901737  2805 net.cpp:157] Top shape: 256 96 27 27 (17915904)
I0909 13:07:16.901741  2805 net.cpp:165] Memory required for data: 824700928
I0909 13:07:16.901748  2805 layer_factory.hpp:77] Creating layer norm1
I0909 13:07:16.901765  2805 net.cpp:100] Creating Layer norm1
I0909 13:07:16.901769  2805 net.cpp:434] norm1 <- pool1
I0909 13:07:16.901774  2805 net.cpp:408] norm1 -> norm1
I0909 13:07:16.901919  2805 net.cpp:150] Setting up norm1
I0909 13:07:16.901928  2805 net.cpp:157] Top shape: 256 96 27 27 (17915904)
I0909 13:07:16.901932  2805 net.cpp:165] Memory required for data: 896364544
I0909 13:07:16.901937  2805 layer_factory.hpp:77] Creating layer conv2
I0909 13:07:16.901948  2805 net.cpp:100] Creating Layer conv2
I0909 13:07:16.901952  2805 net.cpp:434] conv2 <- norm1
I0909 13:07:16.901957  2805 net.cpp:408] conv2 -> conv2
I0909 13:07:16.911698  2805 net.cpp:150] Setting up conv2
I0909 13:07:16.911737  2805 net.cpp:157] Top shape: 256 256 27 27 (47775744)
I0909 13:07:16.911742  2805 net.cpp:165] Memory required for data: 1087467520
I0909 13:07:16.911757  2805 layer_factory.hpp:77] Creating layer relu2
I0909 13:07:16.911768  2805 net.cpp:100] Creating Layer relu2
I0909 13:07:16.911774  2805 net.cpp:434] relu2 <- conv2
I0909 13:07:16.911780  2805 net.cpp:395] relu2 -> conv2 (in-place)
I0909 13:07:16.911917  2805 net.cpp:150] Setting up relu2
I0909 13:07:16.911926  2805 net.cpp:157] Top shape: 256 256 27 27 (47775744)
I0909 13:07:16.911929  2805 net.cpp:165] Memory required for data: 1278570496
I0909 13:07:16.911933  2805 layer_factory.hpp:77] Creating layer pool2
I0909 13:07:16.911939  2805 net.cpp:100] Creating Layer pool2
I0909 13:07:16.911945  2805 net.cpp:434] pool2 <- conv2
I0909 13:07:16.911954  2805 net.cpp:408] pool2 -> pool2
I0909 13:07:16.911998  2805 net.cpp:150] Setting up pool2
I0909 13:07:16.912019  2805 net.cpp:157] Top shape: 256 256 13 13 (11075584)
I0909 13:07:16.912024  2805 net.cpp:165] Memory required for data: 1322872832
I0909 13:07:16.912029  2805 layer_factory.hpp:77] Creating layer norm2
I0909 13:07:16.912042  2805 net.cpp:100] Creating Layer norm2
I0909 13:07:16.912060  2805 net.cpp:434] norm2 <- pool2
I0909 13:07:16.912065  2805 net.cpp:408] norm2 -> norm2
I0909 13:07:16.912375  2805 net.cpp:150] Setting up norm2
I0909 13:07:16.912391  2805 net.cpp:157] Top shape: 256 256 13 13 (11075584)
I0909 13:07:16.912396  2805 net.cpp:165] Memory required for data: 1367175168
I0909 13:07:16.912400  2805 layer_factory.hpp:77] Creating layer conv3
I0909 13:07:16.912415  2805 net.cpp:100] Creating Layer conv3
I0909 13:07:16.912423  2805 net.cpp:434] conv3 <- norm2
I0909 13:07:16.912434  2805 net.cpp:408] conv3 -> conv3
I0909 13:07:16.929399  2811 blocking_queue.cpp:50] Waiting for data
I0909 13:07:16.955936  2805 net.cpp:150] Setting up conv3
I0909 13:07:16.955971  2805 net.cpp:157] Top shape: 256 384 13 13 (16613376)
I0909 13:07:16.955976  2805 net.cpp:165] Memory required for data: 1433628672
I0909 13:07:16.955994  2805 layer_factory.hpp:77] Creating layer relu3
I0909 13:07:16.956012  2805 net.cpp:100] Creating Layer relu3
I0909 13:07:16.956022  2805 net.cpp:434] relu3 <- conv3
I0909 13:07:16.956033  2805 net.cpp:395] relu3 -> conv3 (in-place)
I0909 13:07:16.956235  2805 net.cpp:150] Setting up relu3
I0909 13:07:16.956251  2805 net.cpp:157] Top shape: 256 384 13 13 (16613376)
I0909 13:07:16.956262  2805 net.cpp:165] Memory required for data: 1500082176
I0909 13:07:16.956270  2805 layer_factory.hpp:77] Creating layer conv4
I0909 13:07:16.956288  2805 net.cpp:100] Creating Layer conv4
I0909 13:07:16.956296  2805 net.cpp:434] conv4 <- conv3
I0909 13:07:16.956306  2805 net.cpp:408] conv4 -> conv4
I0909 13:07:16.974892  2805 net.cpp:150] Setting up conv4
I0909 13:07:16.974930  2805 net.cpp:157] Top shape: 256 384 13 13 (16613376)
I0909 13:07:16.974936  2805 net.cpp:165] Memory required for data: 1566535680
I0909 13:07:16.974956  2805 layer_factory.hpp:77] Creating layer relu4
I0909 13:07:16.974975  2805 net.cpp:100] Creating Layer relu4
I0909 13:07:16.974982  2805 net.cpp:434] relu4 <- conv4
I0909 13:07:16.974988  2805 net.cpp:395] relu4 -> conv4 (in-place)
I0909 13:07:16.975152  2805 net.cpp:150] Setting up relu4
I0909 13:07:16.975162  2805 net.cpp:157] Top shape: 256 384 13 13 (16613376)
I0909 13:07:16.975170  2805 net.cpp:165] Memory required for data: 1632989184
I0909 13:07:16.975186  2805 layer_factory.hpp:77] Creating layer conv5
I0909 13:07:16.975208  2805 net.cpp:100] Creating Layer conv5
I0909 13:07:16.975214  2805 net.cpp:434] conv5 <- conv4
I0909 13:07:16.975219  2805 net.cpp:408] conv5 -> conv5
I0909 13:07:16.988895  2805 net.cpp:150] Setting up conv5
I0909 13:07:16.988926  2805 net.cpp:157] Top shape: 256 256 13 13 (11075584)
I0909 13:07:16.988930  2805 net.cpp:165] Memory required for data: 1677291520
I0909 13:07:16.988943  2805 layer_factory.hpp:77] Creating layer relu5
I0909 13:07:16.988953  2805 net.cpp:100] Creating Layer relu5
I0909 13:07:16.988958  2805 net.cpp:434] relu5 <- conv5
I0909 13:07:16.988965  2805 net.cpp:395] relu5 -> conv5 (in-place)
I0909 13:07:16.989097  2805 net.cpp:150] Setting up relu5
I0909 13:07:16.989105  2805 net.cpp:157] Top shape: 256 256 13 13 (11075584)
I0909 13:07:16.989109  2805 net.cpp:165] Memory required for data: 1721593856
I0909 13:07:16.989112  2805 layer_factory.hpp:77] Creating layer pool5
I0909 13:07:16.989118  2805 net.cpp:100] Creating Layer pool5
I0909 13:07:16.989122  2805 net.cpp:434] pool5 <- conv5
I0909 13:07:16.989128  2805 net.cpp:408] pool5 -> pool5
I0909 13:07:16.989162  2805 net.cpp:150] Setting up pool5
I0909 13:07:16.989168  2805 net.cpp:157] Top shape: 256 256 6 6 (2359296)
I0909 13:07:16.989171  2805 net.cpp:165] Memory required for data: 1731031040
I0909 13:07:16.989174  2805 layer_factory.hpp:77] Creating layer fc6
I0909 13:07:16.989187  2805 net.cpp:100] Creating Layer fc6
I0909 13:07:16.989190  2805 net.cpp:434] fc6 <- pool5
I0909 13:07:16.989197  2805 net.cpp:408] fc6 -> fc6
I0909 13:07:17.967285  2805 net.cpp:150] Setting up fc6
I0909 13:07:17.967319  2805 net.cpp:157] Top shape: 256 4096 (1048576)
I0909 13:07:17.967324  2805 net.cpp:165] Memory required for data: 1735225344
I0909 13:07:17.967332  2805 layer_factory.hpp:77] Creating layer relu6
I0909 13:07:17.967342  2805 net.cpp:100] Creating Layer relu6
I0909 13:07:17.967347  2805 net.cpp:434] relu6 <- fc6
I0909 13:07:17.967353  2805 net.cpp:395] relu6 -> fc6 (in-place)
I0909 13:07:17.967705  2805 net.cpp:150] Setting up relu6
I0909 13:07:17.967718  2805 net.cpp:157] Top shape: 256 4096 (1048576)
I0909 13:07:17.967722  2805 net.cpp:165] Memory required for data: 1739419648
I0909 13:07:17.967725  2805 layer_factory.hpp:77] Creating layer drop6
I0909 13:07:17.967731  2805 net.cpp:100] Creating Layer drop6
I0909 13:07:17.967736  2805 net.cpp:434] drop6 <- fc6
I0909 13:07:17.967741  2805 net.cpp:395] drop6 -> fc6 (in-place)
I0909 13:07:17.967762  2805 net.cpp:150] Setting up drop6
I0909 13:07:17.967767  2805 net.cpp:157] Top shape: 256 4096 (1048576)
I0909 13:07:17.967772  2805 net.cpp:165] Memory required for data: 1743613952
I0909 13:07:17.967774  2805 layer_factory.hpp:77] Creating layer fc7
I0909 13:07:17.967782  2805 net.cpp:100] Creating Layer fc7
I0909 13:07:17.967785  2805 net.cpp:434] fc7 <- fc6
I0909 13:07:17.967790  2805 net.cpp:408] fc7 -> fc7
I0909 13:07:18.397032  2805 net.cpp:150] Setting up fc7
I0909 13:07:18.397065  2805 net.cpp:157] Top shape: 256 4096 (1048576)
I0909 13:07:18.397069  2805 net.cpp:165] Memory required for data: 1747808256
I0909 13:07:18.397078  2805 layer_factory.hpp:77] Creating layer relu7
I0909 13:07:18.397089  2805 net.cpp:100] Creating Layer relu7
I0909 13:07:18.397094  2805 net.cpp:434] relu7 <- fc7
I0909 13:07:18.397101  2805 net.cpp:395] relu7 -> fc7 (in-place)
I0909 13:07:18.397456  2805 net.cpp:150] Setting up relu7
I0909 13:07:18.397469  2805 net.cpp:157] Top shape: 256 4096 (1048576)
I0909 13:07:18.397471  2805 net.cpp:165] Memory required for data: 1752002560
I0909 13:07:18.397475  2805 layer_factory.hpp:77] Creating layer drop7
I0909 13:07:18.397481  2805 net.cpp:100] Creating Layer drop7
I0909 13:07:18.397485  2805 net.cpp:434] drop7 <- fc7
I0909 13:07:18.397490  2805 net.cpp:395] drop7 -> fc7 (in-place)
I0909 13:07:18.397508  2805 net.cpp:150] Setting up drop7
I0909 13:07:18.397514  2805 net.cpp:157] Top shape: 256 4096 (1048576)
I0909 13:07:18.397522  2805 net.cpp:165] Memory required for data: 1756196864
I0909 13:07:18.397531  2805 layer_factory.hpp:77] Creating layer fc8
I0909 13:07:18.397538  2805 net.cpp:100] Creating Layer fc8
I0909 13:07:18.397541  2805 net.cpp:434] fc8 <- fc7
I0909 13:07:18.397547  2805 net.cpp:408] fc8 -> fc8
I0909 13:07:18.501157  2805 net.cpp:150] Setting up fc8
I0909 13:07:18.501191  2805 net.cpp:157] Top shape: 256 1000 (256000)
I0909 13:07:18.501196  2805 net.cpp:165] Memory required for data: 1757220864
I0909 13:07:18.501205  2805 layer_factory.hpp:77] Creating layer loss
I0909 13:07:18.501214  2805 net.cpp:100] Creating Layer loss
I0909 13:07:18.501219  2805 net.cpp:434] loss <- fc8
I0909 13:07:18.501225  2805 net.cpp:434] loss <- label
I0909 13:07:18.501235  2805 net.cpp:408] loss -> loss
I0909 13:07:18.501248  2805 layer_factory.hpp:77] Creating layer loss
…
I0909 13:07:18.502539  2805 net.cpp:322] The NetState phase (1) differed from the phase (0) specified by a rule in layer data
I0909 13:07:18.502662  2805 net.cpp:58] Initializing net from parameters: 
name: "CaffeNet"
state {
  phase: TEST
}
layer {
  name: "data"
  type: "Data"
  top: "data"
  top: "label"
  include {
    phase: TEST
  }
  transform_param {
    mirror: false
    crop_size: 227
    mean_file: "/media/ailab/Data/imagenet/imagenet_mean.binaryproto"
  }
  data_param {
    source: "/media/ailab/Data/imagenet/ilsvrc12_val_lmdb"
    batch_size: 50
    backend: LMDB
  }
}
layer {
  name: "conv1"
  type: "Convolution"
  bottom: "data"
  top: "conv1"
  param {
    lr_mult: 1
    decay_mult: 1
  }
  param {
    lr_mult: 2
    decay_mult: 0
  }
  convolution_param {
    num_output: 96
    kernel_size: 11
    stride: 4
    weight_filler {
      type: "gaussian"
      std: 0.01
    }
    bias_filler {
      type: "constant"
      value: 0
    }
  }
}
layer {
  name: "relu1"
  type: "ReLU"
  bottom: "conv1"
  top: "conv1"
}
layer {
  name: "pool1"
  type: "Pooling"
  bottom: "conv1"
  top: "pool1"
  pooling_param {
    pool: MAX
    kernel_size: 3
    stride: 2
  }
}
layer {
  name: "norm1"
  type: "LRN"
  bottom: "pool1"
  top: "norm1"
  lrn_param {
    local_size: 5
    alpha: 0.0001
    beta: 0.75
  }
}
layer {
  name: "conv2"
  type: "Convolution"
  bottom: "norm1"
  top: "conv2"
  param {
    lr_mult: 1
    decay_mult: 1
  }
  param {
    lr_mult: 2
    decay_mult: 0
  }
  convolution_param {
    num_output: 256
    pad: 2
    kernel_size: 5
    group: 2
    weight_filler {
      type: "gaussian"
      std: 0.01
    }
    bias_filler {
      type: "constant"
      value: 1
    }
  }
}
layer {
  name: "relu2"
  type: "ReLU"
  bottom: "conv2"
  top: "conv2"
}
layer {
  name: "pool2"
  type: "Pooling"
  bottom: "conv2"
  top: "pool2"
  pooling_param {
    pool: MAX
    kernel_size: 3
    stride: 2
  }
}
layer {
  name: "norm2"
  type: "LRN"
  bottom: "pool2"
  top: "norm2"
  lrn_param {
    local_size: 5
    alpha: 0.0001
    beta: 0.75
  }
}
layer {
  name: "conv3"
  type: "Convolution"
  bottom: "norm2"
  top: "conv3"
  param {
    lr_mult: 1
    decay_mult: 1
  }
  param {
    lr_mult: 2
    decay_mult: 0
  }
  convolution_param {
    num_output: 384
    pad: 1
    kernel_size: 3
    weight_filler {
      type: "gaussian"
      std: 0.01
    }
    bias_filler {
      type: "constant"
      value: 0
    }
  }
}
layer {
  name: "relu3"
  type: "ReLU"
  bottom: "conv3"
  top: "conv3"
}
layer {
  name: "conv4"
  type: "Convolution"
  bottom: "conv3"
  top: "conv4"
  param {
    lr_mult: 1
    decay_mult: 1
  }
  param {
    lr_mult: 2
    decay_mult: 0
  }
  convolution_param {
    num_output: 384
    pad: 1
    kernel_size: 3
    group: 2
    weight_filler {
      type: "gaussian"
      std: 0.01
    }
    bias_filler {
      type: "constant"
      value: 1
    }
  }
}
layer {
  name: "relu4"
  type: "ReLU"
  bottom: "conv4"
  top: "conv4"
}
layer {
  name: "conv5"
  type: "Convolution"
  bottom: "conv4"
  top: "conv5"
  param {
    lr_mult: 1
    decay_mult: 1
  }
  param {
    lr_mult: 2
    decay_mult: 0
  }
  convolution_param {
    num_output: 256
    pad: 1
    kernel_size: 3
    group: 2
    weight_filler {
      type: "gaussian"
      std: 0.01
    }
    bias_filler {
      type: "constant"
      value: 1
    }
  }
}
layer {
  name: "relu5"
  type: "ReLU"
  bottom: "conv5"
  top: "conv5"
}
layer {
  name: "pool5"
  type: "Pooling"
  bottom: "conv5"
  top: "pool5"
  pooling_param {
    pool: MAX
    kernel_size: 3
    stride: 2
  }
}
layer {
  name: "fc6"
  type: "InnerProduct"
  bottom: "pool5"
  top: "fc6"
  param {
    lr_mult: 1
    decay_mult: 1
  }
  param {
    lr_mult: 2
    decay_mult: 0
  }
  inner_product_param {
    num_output: 4096
    weight_filler {
      type: "gaussian"
      std: 0.005
    }
    bias_filler {
      type: "constant"
      value: 1
    }
  }
}
layer {
  name: "relu6"
  type: "ReLU"
  bottom: "fc6"
  top: "fc6"
}
layer {
  name: "drop6"
  type: "Dropout"
  bottom: "fc6"
  top: "fc6"
  dropout_param {
    dropout_ratio: 0.5
  }
}
layer {
  name: "fc7"
  type: "InnerProduct"
  bottom: "fc6"
  top: "fc7"
  param {
    lr_mult: 1
    decay_mult: 1
  }
  param {
    lr_mult: 2
    decay_mult: 0
  }
  inner_product_param {
    num_output: 4096
    weight_filler {
      type: "gaussian"
      std: 0.005
    }
    bias_filler {
      type: "constant"
      value: 1
    }
  }
}
layer {
  name: "relu7"
  type: "ReLU"
  bottom: "fc7"
  top: "fc7"
}
layer {
  name: "drop7"
  type: "Dropout"
  bottom: "fc7"
  top: "fc7"
  dropout_param {
    dropout_ratio: 0.5
  }
}
layer {
  name: "fc8"
  type: "InnerProduct"
  bottom: "fc7"
  top: "fc8"
  param {
    lr_mult: 1
    decay_mult: 1
  }
  param {
    lr_mult: 2
    decay_mult: 0
  }
  inner_product_param {
    num_output: 1000
    weight_filler {
      type: "gaussian"
      std: 0.01
    }
    bias_filler {
      type: "constant"
      value: 0
    }
  }
}
layer {
  name: "accuracy"
  type: "Accuracy"
  bottom: "fc8"
  bottom: "label"
  top: "accuracy"
  include {
    phase: TEST
  }
}
layer {
  name: "loss"
  type: "SoftmaxWithLoss"
  bottom: "fc8"
  bottom: "label"
  top: "loss"
}
I0909 13:07:18.502812  2805 layer_factory.hpp:77] Creating layer data
I0909 13:07:18.502902  2805 net.cpp:100] Creating Layer data
I0909 13:07:18.502923  2805 net.cpp:408] data -> data
I0909 13:07:18.502939  2805 net.cpp:408] data -> label
I0909 13:07:18.502951  2805 data_transformer.cpp:25] Loading mean file from: /media/ailab/Data/imagenet/imagenet_mean.binaryproto
I0909 13:07:18.503609  2812 db_lmdb.cpp:35] Opened lmdb /media/ailab/Data/imagenet/ilsvrc12_val_lmdb
I0909 13:07:18.661769  2805 data_layer.cpp:41] output data size: 50,3,227,227
I0909 13:07:18.701573  2805 net.cpp:150] Setting up data
I0909 13:07:18.701606  2805 net.cpp:157] Top shape: 50 3 227 227 (7729350)
I0909 13:07:18.701611  2805 net.cpp:157] Top shape: 50 (50)
I0909 13:07:18.701613  2805 net.cpp:165] Memory required for data: 30917600
I0909 13:07:18.701619  2805 layer_factory.hpp:77] Creating layer label_data_1_split
I0909 13:07:18.701630  2805 net.cpp:100] Creating Layer label_data_1_split
I0909 13:07:18.701634  2805 net.cpp:434] label_data_1_split <- label
I0909 13:07:18.701640  2805 net.cpp:408] label_data_1_split -> label_data_1_split_0
I0909 13:07:18.701650  2805 net.cpp:408] label_data_1_split -> label_data_1_split_1
I0909 13:07:18.701735  2805 net.cpp:150] Setting up label_data_1_split
I0909 13:07:18.701748  2805 net.cpp:157] Top shape: 50 (50)
I0909 13:07:18.701753  2805 net.cpp:157] Top shape: 50 (50)
I0909 13:07:18.701756  2805 net.cpp:165] Memory required for data: 30918000
I0909 13:07:18.701761  2805 layer_factory.hpp:77] Creating layer conv1
I0909 13:07:18.701771  2805 net.cpp:100] Creating Layer conv1
I0909 13:07:18.701776  2805 net.cpp:434] conv1 <- data
I0909 13:07:18.701781  2805 net.cpp:408] conv1 -> conv1
I0909 13:07:18.705582  2805 net.cpp:150] Setting up conv1
I0909 13:07:18.705610  2805 net.cpp:157] Top shape: 50 96 55 55 (14520000)
I0909 13:07:18.705613  2805 net.cpp:165] Memory required for data: 88998000
I0909 13:07:18.705623  2805 layer_factory.hpp:77] Creating layer relu1
I0909 13:07:18.705631  2805 net.cpp:100] Creating Layer relu1
I0909 13:07:18.705634  2805 net.cpp:434] relu1 <- conv1
I0909 13:07:18.705638  2805 net.cpp:395] relu1 -> conv1 (in-place)
I0909 13:07:18.705775  2805 net.cpp:150] Setting up relu1
I0909 13:07:18.705796  2805 net.cpp:157] Top shape: 50 96 55 55 (14520000)
I0909 13:07:18.705801  2805 net.cpp:165] Memory required for data: 147078000
I0909 13:07:18.705803  2805 layer_factory.hpp:77] Creating layer pool1
I0909 13:07:18.705821  2805 net.cpp:100] Creating Layer pool1
I0909 13:07:18.705826  2805 net.cpp:434] pool1 <- conv1
I0909 13:07:18.705840  2805 net.cpp:408] pool1 -> pool1
I0909 13:07:18.705874  2805 net.cpp:150] Setting up pool1
I0909 13:07:18.705890  2805 net.cpp:157] Top shape: 50 96 27 27 (3499200)
I0909 13:07:18.705893  2805 net.cpp:165] Memory required for data: 161074800
I0909 13:07:18.705896  2805 layer_factory.hpp:77] Creating layer norm1
I0909 13:07:18.705904  2805 net.cpp:100] Creating Layer norm1
I0909 13:07:18.705907  2805 net.cpp:434] norm1 <- pool1
I0909 13:07:18.705912  2805 net.cpp:408] norm1 -> norm1
I0909 13:07:18.706192  2805 net.cpp:150] Setting up norm1
I0909 13:07:18.706203  2805 net.cpp:157] Top shape: 50 96 27 27 (3499200)
I0909 13:07:18.706207  2805 net.cpp:165] Memory required for data: 175071600
I0909 13:07:18.706210  2805 layer_factory.hpp:77] Creating layer conv2
I0909 13:07:18.706229  2805 net.cpp:100] Creating Layer conv2
I0909 13:07:18.706233  2805 net.cpp:434] conv2 <- norm1
I0909 13:07:18.706239  2805 net.cpp:408] conv2 -> conv2
I0909 13:07:18.715697  2805 net.cpp:150] Setting up conv2
I0909 13:07:18.715729  2805 net.cpp:157] Top shape: 50 256 27 27 (9331200)
I0909 13:07:18.715734  2805 net.cpp:165] Memory required for data: 212396400
I0909 13:07:18.715764  2805 layer_factory.hpp:77] Creating layer relu2
I0909 13:07:18.715782  2805 net.cpp:100] Creating Layer relu2
I0909 13:07:18.715788  2805 net.cpp:434] relu2 <- conv2
I0909 13:07:18.715795  2805 net.cpp:395] relu2 -> conv2 (in-place)
I0909 13:07:18.715931  2805 net.cpp:150] Setting up relu2
I0909 13:07:18.715940  2805 net.cpp:157] Top shape: 50 256 27 27 (9331200)
I0909 13:07:18.715944  2805 net.cpp:165] Memory required for data: 249721200
I0909 13:07:18.715947  2805 layer_factory.hpp:77] Creating layer pool2
I0909 13:07:18.715955  2805 net.cpp:100] Creating Layer pool2
I0909 13:07:18.715960  2805 net.cpp:434] pool2 <- conv2
I0909 13:07:18.715965  2805 net.cpp:408] pool2 -> pool2
I0909 13:07:18.716002  2805 net.cpp:150] Setting up pool2
I0909 13:07:18.716009  2805 net.cpp:157] Top shape: 50 256 13 13 (2163200)
I0909 13:07:18.716012  2805 net.cpp:165] Memory required for data: 258374000
I0909 13:07:18.716015  2805 layer_factory.hpp:77] Creating layer norm2
I0909 13:07:18.716023  2805 net.cpp:100] Creating Layer norm2
I0909 13:07:18.716027  2805 net.cpp:434] norm2 <- pool2
I0909 13:07:18.716032  2805 net.cpp:408] norm2 -> norm2
I0909 13:07:18.716276  2805 net.cpp:150] Setting up norm2
I0909 13:07:18.716287  2805 net.cpp:157] Top shape: 50 256 13 13 (2163200)
I0909 13:07:18.716290  2805 net.cpp:165] Memory required for data: 267026800
I0909 13:07:18.716295  2805 layer_factory.hpp:77] Creating layer conv3
I0909 13:07:18.716305  2805 net.cpp:100] Creating Layer conv3
I0909 13:07:18.716310  2805 net.cpp:434] conv3 <- norm2
I0909 13:07:18.716315  2805 net.cpp:408] conv3 -> conv3
I0909 13:07:18.739764  2805 net.cpp:150] Setting up conv3
I0909 13:07:18.739795  2805 net.cpp:157] Top shape: 50 384 13 13 (3244800)
I0909 13:07:18.739799  2805 net.cpp:165] Memory required for data: 280006000
I0909 13:07:18.739812  2805 layer_factory.hpp:77] Creating layer relu3
I0909 13:07:18.739821  2805 net.cpp:100] Creating Layer relu3
I0909 13:07:18.739826  2805 net.cpp:434] relu3 <- conv3
I0909 13:07:18.739832  2805 net.cpp:395] relu3 -> conv3 (in-place)
I0909 13:07:18.740059  2805 net.cpp:150] Setting up relu3
I0909 13:07:18.740070  2805 net.cpp:157] Top shape: 50 384 13 13 (3244800)
I0909 13:07:18.740074  2805 net.cpp:165] Memory required for data: 292985200
I0909 13:07:18.740077  2805 layer_factory.hpp:77] Creating layer conv4
I0909 13:07:18.740100  2805 net.cpp:100] Creating Layer conv4
I0909 13:07:18.740104  2805 net.cpp:434] conv4 <- conv3
I0909 13:07:18.740121  2805 net.cpp:408] conv4 -> conv4
I0909 13:07:18.758827  2805 net.cpp:150] Setting up conv4
I0909 13:07:18.758867  2805 net.cpp:157] Top shape: 50 384 13 13 (3244800)
I0909 13:07:18.758872  2805 net.cpp:165] Memory required for data: 305964400
I0909 13:07:18.758882  2805 layer_factory.hpp:77] Creating layer relu4
I0909 13:07:18.758890  2805 net.cpp:100] Creating Layer relu4
I0909 13:07:18.758895  2805 net.cpp:434] relu4 <- conv4
I0909 13:07:18.758913  2805 net.cpp:395] relu4 -> conv4 (in-place)
I0909 13:07:18.759048  2805 net.cpp:150] Setting up relu4
I0909 13:07:18.759057  2805 net.cpp:157] Top shape: 50 384 13 13 (3244800)
I0909 13:07:18.759070  2805 net.cpp:165] Memory required for data: 318943600
I0909 13:07:18.759073  2805 layer_factory.hpp:77] Creating layer conv5
I0909 13:07:18.759083  2805 net.cpp:100] Creating Layer conv5
I0909 13:07:18.759088  2805 net.cpp:434] conv5 <- conv4
I0909 13:07:18.759093  2805 net.cpp:408] conv5 -> conv5
I0909 13:07:18.771560  2805 net.cpp:150] Setting up conv5
I0909 13:07:18.771600  2805 net.cpp:157] Top shape: 50 256 13 13 (2163200)
I0909 13:07:18.771605  2805 net.cpp:165] Memory required for data: 327596400
I0909 13:07:18.771628  2805 layer_factory.hpp:77] Creating layer relu5
I0909 13:07:18.771638  2805 net.cpp:100] Creating Layer relu5
I0909 13:07:18.771653  2805 net.cpp:434] relu5 <- conv5
I0909 13:07:18.771659  2805 net.cpp:395] relu5 -> conv5 (in-place)
I0909 13:07:18.771788  2805 net.cpp:150] Setting up relu5
I0909 13:07:18.771796  2805 net.cpp:157] Top shape: 50 256 13 13 (2163200)
I0909 13:07:18.771800  2805 net.cpp:165] Memory required for data: 336249200
I0909 13:07:18.771808  2805 layer_factory.hpp:77] Creating layer pool5
I0909 13:07:18.771823  2805 net.cpp:100] Creating Layer pool5
I0909 13:07:18.771827  2805 net.cpp:434] pool5 <- conv5
I0909 13:07:18.771833  2805 net.cpp:408] pool5 -> pool5
I0909 13:07:18.771872  2805 net.cpp:150] Setting up pool5
I0909 13:07:18.771878  2805 net.cpp:157] Top shape: 50 256 6 6 (460800)
I0909 13:07:18.771880  2805 net.cpp:165] Memory required for data: 338092400
I0909 13:07:18.771883  2805 layer_factory.hpp:77] Creating layer fc6
I0909 13:07:18.771890  2805 net.cpp:100] Creating Layer fc6
I0909 13:07:18.771894  2805 net.cpp:434] fc6 <- pool5
I0909 13:07:18.771899  2805 net.cpp:408] fc6 -> fc6
I0909 13:07:19.710551  2805 net.cpp:150] Setting up fc6
I0909 13:07:19.710584  2805 net.cpp:157] Top shape: 50 4096 (204800)
I0909 13:07:19.710589  2805 net.cpp:165] Memory required for data: 338911600
I0909 13:07:19.710598  2805 layer_factory.hpp:77] Creating layer relu6
I0909 13:07:19.710608  2805 net.cpp:100] Creating Layer relu6
I0909 13:07:19.710614  2805 net.cpp:434] relu6 <- fc6
I0909 13:07:19.710620  2805 net.cpp:395] relu6 -> fc6 (in-place)
I0909 13:07:19.710930  2805 net.cpp:150] Setting up relu6
I0909 13:07:19.710942  2805 net.cpp:157] Top shape: 50 4096 (204800)
I0909 13:07:19.710944  2805 net.cpp:165] Memory required for data: 339730800
I0909 13:07:19.710948  2805 layer_factory.hpp:77] Creating layer drop6
I0909 13:07:19.710954  2805 net.cpp:100] Creating Layer drop6
I0909 13:07:19.710958  2805 net.cpp:434] drop6 <- fc6
I0909 13:07:19.710963  2805 net.cpp:395] drop6 -> fc6 (in-place)
I0909 13:07:19.710988  2805 net.cpp:150] Setting up drop6
I0909 13:07:19.710994  2805 net.cpp:157] Top shape: 50 4096 (204800)
I0909 13:07:19.710996  2805 net.cpp:165] Memory required for data: 340550000
I0909 13:07:19.711000  2805 layer_factory.hpp:77] Creating layer fc7
I0909 13:07:19.711007  2805 net.cpp:100] Creating Layer fc7
I0909 13:07:19.711010  2805 net.cpp:434] fc7 <- fc6
I0909 13:07:19.711015  2805 net.cpp:408] fc7 -> fc7
I0909 13:07:20.120740  2805 net.cpp:150] Setting up fc7
I0909 13:07:20.120792  2805 net.cpp:157] Top shape: 50 4096 (204800)
I0909 13:07:20.120800  2805 net.cpp:165] Memory required for data: 341369200
I0909 13:07:20.120810  2805 layer_factory.hpp:77] Creating layer relu7
I0909 13:07:20.120820  2805 net.cpp:100] Creating Layer relu7
I0909 13:07:20.120826  2805 net.cpp:434] relu7 <- fc7
I0909 13:07:20.120832  2805 net.cpp:395] relu7 -> fc7 (in-place)
I0909 13:07:20.121017  2805 net.cpp:150] Setting up relu7
I0909 13:07:20.121026  2805 net.cpp:157] Top shape: 50 4096 (204800)
I0909 13:07:20.121029  2805 net.cpp:165] Memory required for data: 342188400
I0909 13:07:20.121032  2805 layer_factory.hpp:77] Creating layer drop7
I0909 13:07:20.121038  2805 net.cpp:100] Creating Layer drop7
I0909 13:07:20.121042  2805 net.cpp:434] drop7 <- fc7
I0909 13:07:20.121047  2805 net.cpp:395] drop7 -> fc7 (in-place)
I0909 13:07:20.121070  2805 net.cpp:150] Setting up drop7
I0909 13:07:20.121075  2805 net.cpp:157] Top shape: 50 4096 (204800)
I0909 13:07:20.121078  2805 net.cpp:165] Memory required for data: 343007600
I0909 13:07:20.121083  2805 layer_factory.hpp:77] Creating layer fc8
I0909 13:07:20.121089  2805 net.cpp:100] Creating Layer fc8
I0909 13:07:20.121093  2805 net.cpp:434] fc8 <- fc7
I0909 13:07:20.121098  2805 net.cpp:408] fc8 -> fc8
I0909 13:07:20.221451  2805 net.cpp:150] Setting up fc8
I0909 13:07:20.221496  2805 net.cpp:157] Top shape: 50 1000 (50000)
I0909 13:07:20.221501  2805 net.cpp:165] Memory required for data: 343207600
I0909 13:07:20.221513  2805 layer_factory.hpp:77] Creating layer fc8_fc8_0_split
I0909 13:07:20.221523  2805 net.cpp:100] Creating Layer fc8_fc8_0_split
I0909 13:07:20.221527  2805 net.cpp:434] fc8_fc8_0_split <- fc8
I0909 13:07:20.221546  2805 net.cpp:408] fc8_fc8_0_split -> fc8_fc8_0_split_0
I0909 13:07:20.221566  2805 net.cpp:408] fc8_fc8_0_split -> fc8_fc8_0_split_1
I0909 13:07:20.221642  2805 net.cpp:150] Setting up fc8_fc8_0_split
I0909 13:07:20.221649  2805 net.cpp:157] Top shape: 50 1000 (50000)
I0909 13:07:20.221659  2805 net.cpp:157] Top shape: 50 1000 (50000)
I0909 13:07:20.232125  2805 net.cpp:165] Memory required for data: 343607600
I0909 13:07:20.232136  2805 layer_factory.hpp:77] Creating layer accuracy
I0909 13:07:20.232149  2805 net.cpp:100] Creating Layer accuracy
I0909 13:07:20.232154  2805 net.cpp:434] accuracy <- fc8_fc8_0_split_0
I0909 13:07:20.232161  2805 net.cpp:434] accuracy <- label_data_1_split_0
I0909 13:07:20.232167  2805 net.cpp:408] accuracy -> accuracy
…
