…
I0908 13:01:12.770458  2627 net.cpp:322] The NetState phase (0) differed from the phase (1) specified by a rule in layer accuracy
I0908 13:01:12.770591  2627 net.cpp:58] Initializing net from parameters: 
name: "CaffeNet"
state {
  phase: TRAIN
  level: 0
  stage: ""
}
layer {
  name: "data"
  type: "Data"
  top: "data"
  top: "label"
  include {
    phase: TRAIN
  }
  transform_param {
    mirror: true
    crop_size: 227
    mean_file: "/media/ailab/Data/imagenet/imagenet_mean.binaryproto"
  }
  data_param {
    source: "/media/ailab/Data/imagenet/ilsvrc12_train_lmdb"
    batch_size: 128
    backend: LMDB
  }
}
layer {
  name: "conv1"
  type: "Convolution"
  bottom: "data"
  top: "conv1"
  param {
    lr_mult: 1
    decay_mult: 1
  }
  param {
    lr_mult: 2
    decay_mult: 0
  }
  convolution_param {
    num_output: 96
    kernel_size: 11
    stride: 4
    weight_filler {
      type: "gaussian"
      std: 0.01
    }
    bias_filler {
      type: "constant"
      value: 0
    }
  }
}
layer {
  name: "relu1"
  type: "ReLU"
  bottom: "conv1"
  top: "conv1"
}
layer {
  name: "pool1"
  type: "Pooling"
  bottom: "conv1"
  top: "pool1"
  pooling_param {
    pool: MAX
    kernel_size: 3
    stride: 2
  }
}
layer {
  name: "norm1"
  type: "LRN"
  bottom: "pool1"
  top: "norm1"
  lrn_param {
    local_size: 5
    alpha: 0.0001
    beta: 0.75
  }
}
layer {
  name: "conv2"
  type: "Convolution"
  bottom: "norm1"
  top: "conv2"
  param {
    lr_mult: 1
    decay_mult: 1
  }
  param {
    lr_mult: 2
    decay_mult: 0
  }
  convolution_param {
    num_output: 256
    kernel_size: 5
    group: 2
    weight_filler {
      type: "gaussian"
      std: 0.01
    }
    bias_filler {
      type: "constant"
      value: 1
    }
  }
}
layer {
  name: "relu2"
  type: "ReLU"
  bottom: "conv2"
  top: "conv2"
}
layer {
  name: "pool2"
  type: "Pooling"
  bottom: "conv2"
  top: "pool2"
  pooling_param {
    pool: MAX
    kernel_size: 3
    stride: 2
  }
}
layer {
  name: "norm2"
  type: "LRN"
  bottom: "pool2"
  top: "norm2"
  lrn_param {
    local_size: 5
    alpha: 0.0001
    beta: 0.75
  }
}
layer {
  name: "conv3"
  type: "Convolution"
  bottom: "norm2"
  top: "conv3"
  param {
    lr_mult: 1
    decay_mult: 1
  }
  param {
    lr_mult: 2
    decay_mult: 0
  }
  convolution_param {
    num_output: 384
    kernel_size: 3
    weight_filler {
      type: "gaussian"
      std: 0.01
    }
    bias_filler {
      type: "constant"
      value: 0
    }
  }
}
layer {
  name: "relu3"
  type: "ReLU"
  bottom: "conv3"
  top: "conv3"
}
layer {
  name: "conv4"
  type: "Convolution"
  bottom: "conv3"
  top: "conv4"
  param {
    lr_mult: 1
    decay_mult: 1
  }
  param {
    lr_mult: 2
    decay_mult: 0
  }
  convolution_param {
    num_output: 384
    kernel_size: 3
    group: 2
    weight_filler {
      type: "gaussian"
      std: 0.01
    }
    bias_filler {
      type: "constant"
      value: 1
    }
  }
}
layer {
  name: "relu4"
  type: "ReLU"
  bottom: "conv4"
  top: "conv4"
}
layer {
  name: "conv5"
  type: "Convolution"
  bottom: "conv4"
  top: "conv5"
  param {
    lr_mult: 1
    decay_mult: 1
  }
  param {
    lr_mult: 2
    decay_mult: 0
  }
  convolution_param {
    num_output: 256
    kernel_size: 3
    group: 2
    weight_filler {
      type: "gaussian"
      std: 0.01
    }
    bias_filler {
      type: "constant"
      value: 1
    }
  }
}
layer {
  name: "relu5"
  type: "ReLU"
  bottom: "conv5"
  top: "conv5"
}
layer {
  name: "pool5"
  type: "Pooling"
  bottom: "conv5"
  top: "pool5"
  pooling_param {
    pool: MAX
    kernel_size: 3
    stride: 2
  }
}
layer {
  name: "fc6"
  type: "InnerProduct"
  bottom: "pool5"
  top: "fc6"
  param {
    lr_mult: 1
    decay_mult: 1
  }
  param {
    lr_mult: 2
    decay_mult: 0
  }
  inner_product_param {
    num_output: 4096
    weight_filler {
      type: "gaussian"
      std: 0.005
    }
    bias_filler {
      type: "constant"
      value: 1
    }
  }
}
layer {
  name: "relu6"
  type: "ReLU"
  bottom: "fc6"
  top: "fc6"
}
layer {
  name: "drop6"
  type: "Dropout"
  bottom: "fc6"
  top: "fc6"
  dropout_param {
    dropout_ratio: 0.5
  }
}
layer {
  name: "fc7"
  type: "InnerProduct"
  bottom: "fc6"
  top: "fc7"
  param {
    lr_mult: 1
    decay_mult: 1
  }
  param {
    lr_mult: 2
    decay_mult: 0
  }
  inner_product_param {
    num_output: 4096
    weight_filler {
      type: "gaussian"
      std: 0.005
    }
    bias_filler {
      type: "constant"
      value: 1
    }
  }
}
layer {
  name: "relu7"
  type: "ReLU"
  bottom: "fc7"
  top: "fc7"
}
layer {
  name: "drop7"
  type: "Dropout"
  bottom: "fc7"
  top: "fc7"
  dropout_param {
    dropout_ratio: 0.5
  }
}
layer {
  name: "fc8"
  type: "InnerProduct"
  bottom: "fc7"
  top: "fc8"
  param {
    lr_mult: 1
    decay_mult: 1
  }
  param {
    lr_mult: 2
    decay_mult: 0
  }
  inner_product_param {
    num_output: 1000
    weight_filler {
      type: "gaussian"
      std: 0.01
    }
    bias_filler {
      type: "constant"
      value: 0
    }
  }
}
layer {
  name: "loss"
  type: "SoftmaxWithLoss"
  bottom: "fc8"
  bottom: "label"
  top: "loss"
}
I0908 13:01:12.770689  2627 layer_factory.hpp:77] Creating layer data
I0908 13:01:12.771137  2627 net.cpp:100] Creating Layer data
I0908 13:01:12.771149  2627 net.cpp:408] data -> data
I0908 13:01:12.771173  2627 net.cpp:408] data -> label
I0908 13:01:12.771183  2627 data_transformer.cpp:25] Loading mean file from: /media/ailab/Data/imagenet/imagenet_mean.binaryproto
I0908 13:01:12.825259  2632 db_lmdb.cpp:35] Opened lmdb /media/ailab/Data/imagenet/ilsvrc12_train_lmdb
I0908 13:01:12.936034  2627 data_layer.cpp:41] output data size: 128,3,227,227
I0908 13:01:13.038828  2627 net.cpp:150] Setting up data
I0908 13:01:13.038866  2627 net.cpp:157] Top shape: 128 3 227 227 (19787136)
I0908 13:01:13.038873  2627 net.cpp:157] Top shape: 128 (128)
I0908 13:01:13.038877  2627 net.cpp:165] Memory required for data: 79149056
I0908 13:01:13.038887  2627 layer_factory.hpp:77] Creating layer conv1
I0908 13:01:13.038908  2627 net.cpp:100] Creating Layer conv1
I0908 13:01:13.038915  2627 net.cpp:434] conv1 <- data
I0908 13:01:13.038928  2627 net.cpp:408] conv1 -> conv1
I0908 13:01:14.482460  2627 net.cpp:150] Setting up conv1
I0908 13:01:14.482493  2627 net.cpp:157] Top shape: 128 96 55 55 (37171200)
I0908 13:01:14.482497  2627 net.cpp:165] Memory required for data: 227833856
I0908 13:01:14.493146  2627 layer_factory.hpp:77] Creating layer relu1
I0908 13:01:14.493167  2627 net.cpp:100] Creating Layer relu1
I0908 13:01:14.493173  2627 net.cpp:434] relu1 <- conv1
I0908 13:01:14.493180  2627 net.cpp:395] relu1 -> conv1 (in-place)
I0908 13:01:14.499989  2627 net.cpp:150] Setting up relu1
I0908 13:01:14.500005  2627 net.cpp:157] Top shape: 128 96 55 55 (37171200)
I0908 13:01:14.500010  2627 net.cpp:165] Memory required for data: 376518656
I0908 13:01:14.500013  2627 layer_factory.hpp:77] Creating layer pool1
I0908 13:01:14.501854  2627 net.cpp:100] Creating Layer pool1
I0908 13:01:14.501868  2627 net.cpp:434] pool1 <- conv1
I0908 13:01:14.501874  2627 net.cpp:408] pool1 -> pool1
I0908 13:01:14.501921  2627 net.cpp:150] Setting up pool1
I0908 13:01:14.501929  2627 net.cpp:157] Top shape: 128 96 27 27 (8957952)
I0908 13:01:14.501934  2627 net.cpp:165] Memory required for data: 412350464
I0908 13:01:14.501937  2627 layer_factory.hpp:77] Creating layer norm1
I0908 13:01:14.501953  2627 net.cpp:100] Creating Layer norm1
I0908 13:01:14.501965  2627 net.cpp:434] norm1 <- pool1
I0908 13:01:14.501971  2627 net.cpp:408] norm1 -> norm1
I0908 13:01:14.502127  2627 net.cpp:150] Setting up norm1
I0908 13:01:14.502137  2627 net.cpp:157] Top shape: 128 96 27 27 (8957952)
I0908 13:01:14.502141  2627 net.cpp:165] Memory required for data: 448182272
I0908 13:01:14.502146  2627 layer_factory.hpp:77] Creating layer conv2
I0908 13:01:14.502156  2627 net.cpp:100] Creating Layer conv2
I0908 13:01:14.502161  2627 net.cpp:434] conv2 <- norm1
I0908 13:01:14.502166  2627 net.cpp:408] conv2 -> conv2
I0908 13:01:14.520474  2627 net.cpp:150] Setting up conv2
I0908 13:01:14.520498  2627 net.cpp:157] Top shape: 128 256 23 23 (17334272)
I0908 13:01:14.520506  2627 net.cpp:165] Memory required for data: 517519360
I0908 13:01:14.520522  2627 layer_factory.hpp:77] Creating layer relu2
I0908 13:01:14.520534  2627 net.cpp:100] Creating Layer relu2
I0908 13:01:14.520540  2627 net.cpp:434] relu2 <- conv2
I0908 13:01:14.520550  2627 net.cpp:395] relu2 -> conv2 (in-place)
I0908 13:01:14.520779  2627 net.cpp:150] Setting up relu2
I0908 13:01:14.520794  2627 net.cpp:157] Top shape: 128 256 23 23 (17334272)
I0908 13:01:14.520800  2627 net.cpp:165] Memory required for data: 586856448
I0908 13:01:14.520807  2627 layer_factory.hpp:77] Creating layer pool2
I0908 13:01:14.520817  2627 net.cpp:100] Creating Layer pool2
I0908 13:01:14.520824  2627 net.cpp:434] pool2 <- conv2
I0908 13:01:14.520834  2627 net.cpp:408] pool2 -> pool2
I0908 13:01:14.520889  2627 net.cpp:150] Setting up pool2
I0908 13:01:14.520900  2627 net.cpp:157] Top shape: 128 256 11 11 (3964928)
I0908 13:01:14.520905  2627 net.cpp:165] Memory required for data: 602716160
I0908 13:01:14.520911  2627 layer_factory.hpp:77] Creating layer norm2
I0908 13:01:14.520922  2627 net.cpp:100] Creating Layer norm2
I0908 13:01:14.520930  2627 net.cpp:434] norm2 <- pool2
I0908 13:01:14.520938  2627 net.cpp:408] norm2 -> norm2
I0908 13:01:14.521322  2627 net.cpp:150] Setting up norm2
I0908 13:01:14.521342  2627 net.cpp:157] Top shape: 128 256 11 11 (3964928)
I0908 13:01:14.521348  2627 net.cpp:165] Memory required for data: 618575872
I0908 13:01:14.521354  2627 layer_factory.hpp:77] Creating layer conv3
I0908 13:01:14.521369  2627 net.cpp:100] Creating Layer conv3
I0908 13:01:14.521376  2627 net.cpp:434] conv3 <- norm2
I0908 13:01:14.521386  2627 net.cpp:408] conv3 -> conv3
I0908 13:01:14.544203  2627 net.cpp:150] Setting up conv3
I0908 13:01:14.544216  2627 net.cpp:157] Top shape: 128 384 9 9 (3981312)
I0908 13:01:14.544220  2627 net.cpp:165] Memory required for data: 634501120
I0908 13:01:14.544229  2627 layer_factory.hpp:77] Creating layer relu3
I0908 13:01:14.544234  2627 net.cpp:100] Creating Layer relu3
I0908 13:01:14.544239  2627 net.cpp:434] relu3 <- conv3
I0908 13:01:14.544244  2627 net.cpp:395] relu3 -> conv3 (in-place)
I0908 13:01:14.544366  2627 net.cpp:150] Setting up relu3
I0908 13:01:14.544374  2627 net.cpp:157] Top shape: 128 384 9 9 (3981312)
I0908 13:01:14.544378  2627 net.cpp:165] Memory required for data: 650426368
I0908 13:01:14.544381  2627 layer_factory.hpp:77] Creating layer conv4
I0908 13:01:14.544389  2627 net.cpp:100] Creating Layer conv4
I0908 13:01:14.544392  2627 net.cpp:434] conv4 <- conv3
I0908 13:01:14.544399  2627 net.cpp:408] conv4 -> conv4
I0908 13:01:14.561399  2627 net.cpp:150] Setting up conv4
I0908 13:01:14.561414  2627 net.cpp:157] Top shape: 128 384 7 7 (2408448)
I0908 13:01:14.561419  2627 net.cpp:165] Memory required for data: 660060160
I0908 13:01:14.561424  2627 layer_factory.hpp:77] Creating layer relu4
I0908 13:01:14.561431  2627 net.cpp:100] Creating Layer relu4
I0908 13:01:14.561435  2627 net.cpp:434] relu4 <- conv4
I0908 13:01:14.561440  2627 net.cpp:395] relu4 -> conv4 (in-place)
I0908 13:01:14.561565  2627 net.cpp:150] Setting up relu4
I0908 13:01:14.561573  2627 net.cpp:157] Top shape: 128 384 7 7 (2408448)
I0908 13:01:14.561576  2627 net.cpp:165] Memory required for data: 669693952
I0908 13:01:14.561579  2627 layer_factory.hpp:77] Creating layer conv5
I0908 13:01:14.561599  2627 net.cpp:100] Creating Layer conv5
I0908 13:01:14.561604  2627 net.cpp:434] conv5 <- conv4
I0908 13:01:14.561609  2627 net.cpp:408] conv5 -> conv5
I0908 13:01:14.573490  2627 net.cpp:150] Setting up conv5
I0908 13:01:14.573503  2627 net.cpp:157] Top shape: 128 256 5 5 (819200)
I0908 13:01:14.573506  2627 net.cpp:165] Memory required for data: 672970752
I0908 13:01:14.573516  2627 layer_factory.hpp:77] Creating layer relu5
I0908 13:01:14.573524  2627 net.cpp:100] Creating Layer relu5
I0908 13:01:14.573529  2627 net.cpp:434] relu5 <- conv5
I0908 13:01:14.573534  2627 net.cpp:395] relu5 -> conv5 (in-place)
I0908 13:01:14.573657  2627 net.cpp:150] Setting up relu5
I0908 13:01:14.573663  2627 net.cpp:157] Top shape: 128 256 5 5 (819200)
I0908 13:01:14.573668  2627 net.cpp:165] Memory required for data: 676247552
I0908 13:01:14.573670  2627 layer_factory.hpp:77] Creating layer pool5
I0908 13:01:14.573676  2627 net.cpp:100] Creating Layer pool5
I0908 13:01:14.573680  2627 net.cpp:434] pool5 <- conv5
I0908 13:01:14.573686  2627 net.cpp:408] pool5 -> pool5
I0908 13:01:14.573719  2627 net.cpp:150] Setting up pool5
I0908 13:01:14.573724  2627 net.cpp:157] Top shape: 128 256 2 2 (131072)
I0908 13:01:14.573726  2627 net.cpp:165] Memory required for data: 676771840
I0908 13:01:14.573729  2627 layer_factory.hpp:77] Creating layer fc6
I0908 13:01:14.573741  2627 net.cpp:100] Creating Layer fc6
I0908 13:01:14.573745  2627 net.cpp:434] fc6 <- pool5
I0908 13:01:14.573750  2627 net.cpp:408] fc6 -> fc6
I0908 13:01:14.673573  2627 net.cpp:150] Setting up fc6
I0908 13:01:14.673604  2627 net.cpp:157] Top shape: 128 4096 (524288)
I0908 13:01:14.673607  2627 net.cpp:165] Memory required for data: 678868992
I0908 13:01:14.673616  2627 layer_factory.hpp:77] Creating layer relu6
I0908 13:01:14.673627  2627 net.cpp:100] Creating Layer relu6
I0908 13:01:14.673632  2627 net.cpp:434] relu6 <- fc6
I0908 13:01:14.673638  2627 net.cpp:395] relu6 -> fc6 (in-place)
I0908 13:01:14.673946  2627 net.cpp:150] Setting up relu6
I0908 13:01:14.673956  2627 net.cpp:157] Top shape: 128 4096 (524288)
I0908 13:01:14.673959  2627 net.cpp:165] Memory required for data: 680966144
I0908 13:01:14.673964  2627 layer_factory.hpp:77] Creating layer drop6
I0908 13:01:14.673970  2627 net.cpp:100] Creating Layer drop6
I0908 13:01:14.673974  2627 net.cpp:434] drop6 <- fc6
I0908 13:01:14.673979  2627 net.cpp:395] drop6 -> fc6 (in-place)
I0908 13:01:14.674000  2627 net.cpp:150] Setting up drop6
I0908 13:01:14.674005  2627 net.cpp:157] Top shape: 128 4096 (524288)
I0908 13:01:14.674007  2627 net.cpp:165] Memory required for data: 683063296
I0908 13:01:14.674010  2627 layer_factory.hpp:77] Creating layer fc7
I0908 13:01:14.674016  2627 net.cpp:100] Creating Layer fc7
I0908 13:01:14.674021  2627 net.cpp:434] fc7 <- fc6
I0908 13:01:14.674026  2627 net.cpp:408] fc7 -> fc7
I0908 13:01:15.071413  2627 net.cpp:150] Setting up fc7
I0908 13:01:15.071445  2627 net.cpp:157] Top shape: 128 4096 (524288)
I0908 13:01:15.071449  2627 net.cpp:165] Memory required for data: 685160448
I0908 13:01:15.071458  2627 layer_factory.hpp:77] Creating layer relu7
I0908 13:01:15.071468  2627 net.cpp:100] Creating Layer relu7
I0908 13:01:15.071473  2627 net.cpp:434] relu7 <- fc7
I0908 13:01:15.071480  2627 net.cpp:395] relu7 -> fc7 (in-place)
I0908 13:01:15.071795  2627 net.cpp:150] Setting up relu7
I0908 13:01:15.071805  2627 net.cpp:157] Top shape: 128 4096 (524288)
I0908 13:01:15.071810  2627 net.cpp:165] Memory required for data: 687257600
I0908 13:01:15.071812  2627 layer_factory.hpp:77] Creating layer drop7
I0908 13:01:15.071820  2627 net.cpp:100] Creating Layer drop7
I0908 13:01:15.071822  2627 net.cpp:434] drop7 <- fc7
I0908 13:01:15.071827  2627 net.cpp:395] drop7 -> fc7 (in-place)
I0908 13:01:15.071846  2627 net.cpp:150] Setting up drop7
I0908 13:01:15.071851  2627 net.cpp:157] Top shape: 128 4096 (524288)
I0908 13:01:15.071853  2627 net.cpp:165] Memory required for data: 689354752
I0908 13:01:15.071856  2627 layer_factory.hpp:77] Creating layer fc8
I0908 13:01:15.071871  2627 net.cpp:100] Creating Layer fc8
I0908 13:01:15.071880  2627 net.cpp:434] fc8 <- fc7
I0908 13:01:15.071887  2627 net.cpp:408] fc8 -> fc8
I0908 13:01:15.168376  2627 net.cpp:150] Setting up fc8
I0908 13:01:15.168408  2627 net.cpp:157] Top shape: 128 1000 (128000)
I0908 13:01:15.168412  2627 net.cpp:165] Memory required for data: 689866752
I0908 13:01:15.168422  2627 layer_factory.hpp:77] Creating layer loss
I0908 13:01:15.168431  2627 net.cpp:100] Creating Layer loss
I0908 13:01:15.168437  2627 net.cpp:434] loss <- fc8
I0908 13:01:15.168442  2627 net.cpp:434] loss <- label
I0908 13:01:15.168452  2627 net.cpp:408] loss -> loss
I0908 13:01:15.168465  2627 layer_factory.hpp:77] Creating layer loss
…
I0908 13:01:15.169643  2627 net.cpp:322] The NetState phase (1) differed from the phase (0) specified by a rule in layer data
I0908 13:01:15.169764  2627 net.cpp:58] Initializing net from parameters: 
name: "CaffeNet"
state {
  phase: TEST
}
layer {
  name: "data"
  type: "Data"
  top: "data"
  top: "label"
  include {
    phase: TEST
  }
  transform_param {
    mirror: false
    crop_size: 227
    mean_file: "/media/ailab/Data/imagenet/imagenet_mean.binaryproto"
  }
  data_param {
    source: "/media/ailab/Data/imagenet/ilsvrc12_val_lmdb"
    batch_size: 50
    backend: LMDB
  }
}
layer {
  name: "conv1"
  type: "Convolution"
  bottom: "data"
  top: "conv1"
  param {
    lr_mult: 1
    decay_mult: 1
  }
  param {
    lr_mult: 2
    decay_mult: 0
  }
  convolution_param {
    num_output: 96
    kernel_size: 11
    stride: 4
    weight_filler {
      type: "gaussian"
      std: 0.01
    }
    bias_filler {
      type: "constant"
      value: 0
    }
  }
}
layer {
  name: "relu1"
  type: "ReLU"
  bottom: "conv1"
  top: "conv1"
}
layer {
  name: "pool1"
  type: "Pooling"
  bottom: "conv1"
  top: "pool1"
  pooling_param {
    pool: MAX
    kernel_size: 3
    stride: 2
  }
}
layer {
  name: "norm1"
  type: "LRN"
  bottom: "pool1"
  top: "norm1"
  lrn_param {
    local_size: 5
    alpha: 0.0001
    beta: 0.75
  }
}
layer {
  name: "conv2"
  type: "Convolution"
  bottom: "norm1"
  top: "conv2"
  param {
    lr_mult: 1
    decay_mult: 1
  }
  param {
    lr_mult: 2
    decay_mult: 0
  }
  convolution_param {
    num_output: 256
    kernel_size: 5
    group: 2
    weight_filler {
      type: "gaussian"
      std: 0.01
    }
    bias_filler {
      type: "constant"
      value: 1
    }
  }
}
layer {
  name: "relu2"
  type: "ReLU"
  bottom: "conv2"
  top: "conv2"
}
layer {
  name: "pool2"
  type: "Pooling"
  bottom: "conv2"
  top: "pool2"
  pooling_param {
    pool: MAX
    kernel_size: 3
    stride: 2
  }
}
layer {
  name: "norm2"
  type: "LRN"
  bottom: "pool2"
  top: "norm2"
  lrn_param {
    local_size: 5
    alpha: 0.0001
    beta: 0.75
  }
}
layer {
  name: "conv3"
  type: "Convolution"
  bottom: "norm2"
  top: "conv3"
  param {
    lr_mult: 1
    decay_mult: 1
  }
  param {
    lr_mult: 2
    decay_mult: 0
  }
  convolution_param {
    num_output: 384
    kernel_size: 3
    weight_filler {
      type: "gaussian"
      std: 0.01
    }
    bias_filler {
      type: "constant"
      value: 0
    }
  }
}
layer {
  name: "relu3"
  type: "ReLU"
  bottom: "conv3"
  top: "conv3"
}
layer {
  name: "conv4"
  type: "Convolution"
  bottom: "conv3"
  top: "conv4"
  param {
    lr_mult: 1
    decay_mult: 1
  }
  param {
    lr_mult: 2
    decay_mult: 0
  }
  convolution_param {
    num_output: 384
    kernel_size: 3
    group: 2
    weight_filler {
      type: "gaussian"
      std: 0.01
    }
    bias_filler {
      type: "constant"
      value: 1
    }
  }
}
layer {
  name: "relu4"
  type: "ReLU"
  bottom: "conv4"
  top: "conv4"
}
layer {
  name: "conv5"
  type: "Convolution"
  bottom: "conv4"
  top: "conv5"
  param {
    lr_mult: 1
    decay_mult: 1
  }
  param {
    lr_mult: 2
    decay_mult: 0
  }
  convolution_param {
    num_output: 256
    kernel_size: 3
    group: 2
    weight_filler {
      type: "gaussian"
      std: 0.01
    }
    bias_filler {
      type: "constant"
      value: 1
    }
  }
}
layer {
  name: "relu5"
  type: "ReLU"
  bottom: "conv5"
  top: "conv5"
}
layer {
  name: "pool5"
  type: "Pooling"
  bottom: "conv5"
  top: "pool5"
  pooling_param {
    pool: MAX
    kernel_size: 3
    stride: 2
  }
}
layer {
  name: "fc6"
  type: "InnerProduct"
  bottom: "pool5"
  top: "fc6"
  param {
    lr_mult: 1
    decay_mult: 1
  }
  param {
    lr_mult: 2
    decay_mult: 0
  }
  inner_product_param {
    num_output: 4096
    weight_filler {
      type: "gaussian"
      std: 0.005
    }
    bias_filler {
      type: "constant"
      value: 1
    }
  }
}
layer {
  name: "relu6"
  type: "ReLU"
  bottom: "fc6"
  top: "fc6"
}
layer {
  name: "drop6"
  type: "Dropout"
  bottom: "fc6"
  top: "fc6"
  dropout_param {
    dropout_ratio: 0.5
  }
}
layer {
  name: "fc7"
  type: "InnerProduct"
  bottom: "fc6"
  top: "fc7"
  param {
    lr_mult: 1
    decay_mult: 1
  }
  param {
    lr_mult: 2
    decay_mult: 0
  }
  inner_product_param {
    num_output: 4096
    weight_filler {
      type: "gaussian"
      std: 0.005
    }
    bias_filler {
      type: "constant"
      value: 1
    }
  }
}
layer {
  name: "relu7"
  type: "ReLU"
  bottom: "fc7"
  top: "fc7"
}
layer {
  name: "drop7"
  type: "Dropout"
  bottom: "fc7"
  top: "fc7"
  dropout_param {
    dropout_ratio: 0.5
  }
}
layer {
  name: "fc8"
  type: "InnerProduct"
  bottom: "fc7"
  top: "fc8"
  param {
    lr_mult: 1
    decay_mult: 1
  }
  param {
    lr_mult: 2
    decay_mult: 0
  }
  inner_product_param {
    num_output: 1000
    weight_filler {
      type: "gaussian"
      std: 0.01
    }
    bias_filler {
      type: "constant"
      value: 0
    }
  }
}
layer {
  name: "accuracy"
  type: "Accuracy"
  bottom: "fc8"
  bottom: "label"
  top: "accuracy"
  include {
    phase: TEST
  }
}
layer {
  name: "loss"
  type: "SoftmaxWithLoss"
  bottom: "fc8"
  bottom: "label"
  top: "loss"
}
I0908 13:01:15.169858  2627 layer_factory.hpp:77] Creating layer data
I0908 13:01:15.170055  2627 net.cpp:100] Creating Layer data
I0908 13:01:15.170064  2627 net.cpp:408] data -> data
I0908 13:01:15.170073  2627 net.cpp:408] data -> label
I0908 13:01:15.170079  2627 data_transformer.cpp:25] Loading mean file from: /media/ailab/Data/imagenet/imagenet_mean.binaryproto
I0908 13:01:15.186020  2634 db_lmdb.cpp:35] Opened lmdb /media/ailab/Data/imagenet/ilsvrc12_val_lmdb
I0908 13:01:15.207231  2627 data_layer.cpp:41] output data size: 50,3,227,227
I0908 13:01:15.248080  2627 net.cpp:150] Setting up data
I0908 13:01:15.248108  2627 net.cpp:157] Top shape: 50 3 227 227 (7729350)
I0908 13:01:15.248114  2627 net.cpp:157] Top shape: 50 (50)
I0908 13:01:15.248117  2627 net.cpp:165] Memory required for data: 30917600
I0908 13:01:15.248123  2627 layer_factory.hpp:77] Creating layer label_data_1_split
I0908 13:01:15.248137  2627 net.cpp:100] Creating Layer label_data_1_split
I0908 13:01:15.248142  2627 net.cpp:434] label_data_1_split <- label
I0908 13:01:15.248148  2627 net.cpp:408] label_data_1_split -> label_data_1_split_0
I0908 13:01:15.248157  2627 net.cpp:408] label_data_1_split -> label_data_1_split_1
I0908 13:01:15.248231  2627 net.cpp:150] Setting up label_data_1_split
I0908 13:01:15.248239  2627 net.cpp:157] Top shape: 50 (50)
I0908 13:01:15.248252  2627 net.cpp:157] Top shape: 50 (50)
I0908 13:01:15.248255  2627 net.cpp:165] Memory required for data: 30918000
I0908 13:01:15.248258  2627 layer_factory.hpp:77] Creating layer conv1
I0908 13:01:15.248270  2627 net.cpp:100] Creating Layer conv1
I0908 13:01:15.248272  2627 net.cpp:434] conv1 <- data
I0908 13:01:15.248277  2627 net.cpp:408] conv1 -> conv1
I0908 13:01:15.251962  2627 net.cpp:150] Setting up conv1
I0908 13:01:15.251974  2627 net.cpp:157] Top shape: 50 96 55 55 (14520000)
I0908 13:01:15.251978  2627 net.cpp:165] Memory required for data: 88998000
I0908 13:01:15.251987  2627 layer_factory.hpp:77] Creating layer relu1
I0908 13:01:15.251994  2627 net.cpp:100] Creating Layer relu1
I0908 13:01:15.252008  2627 net.cpp:434] relu1 <- conv1
I0908 13:01:15.252012  2627 net.cpp:395] relu1 -> conv1 (in-place)
I0908 13:01:15.252156  2627 net.cpp:150] Setting up relu1
I0908 13:01:15.252162  2627 net.cpp:157] Top shape: 50 96 55 55 (14520000)
I0908 13:01:15.252166  2627 net.cpp:165] Memory required for data: 147078000
I0908 13:01:15.252169  2627 layer_factory.hpp:77] Creating layer pool1
I0908 13:01:15.252177  2627 net.cpp:100] Creating Layer pool1
I0908 13:01:15.252180  2627 net.cpp:434] pool1 <- conv1
I0908 13:01:15.252185  2627 net.cpp:408] pool1 -> pool1
I0908 13:01:15.252218  2627 net.cpp:150] Setting up pool1
I0908 13:01:15.252223  2627 net.cpp:157] Top shape: 50 96 27 27 (3499200)
I0908 13:01:15.252226  2627 net.cpp:165] Memory required for data: 161074800
I0908 13:01:15.252229  2627 layer_factory.hpp:77] Creating layer norm1
I0908 13:01:15.252246  2627 net.cpp:100] Creating Layer norm1
I0908 13:01:15.252249  2627 net.cpp:434] norm1 <- pool1
I0908 13:01:15.252254  2627 net.cpp:408] norm1 -> norm1
I0908 13:01:15.252470  2627 net.cpp:150] Setting up norm1
I0908 13:01:15.252480  2627 net.cpp:157] Top shape: 50 96 27 27 (3499200)
I0908 13:01:15.252483  2627 net.cpp:165] Memory required for data: 175071600
I0908 13:01:15.252487  2627 layer_factory.hpp:77] Creating layer conv2
I0908 13:01:15.252495  2627 net.cpp:100] Creating Layer conv2
I0908 13:01:15.252498  2627 net.cpp:434] conv2 <- norm1
I0908 13:01:15.252504  2627 net.cpp:408] conv2 -> conv2
I0908 13:01:15.261550  2627 net.cpp:150] Setting up conv2
I0908 13:01:15.261577  2627 net.cpp:157] Top shape: 50 256 23 23 (6771200)
I0908 13:01:15.261581  2627 net.cpp:165] Memory required for data: 202156400
I0908 13:01:15.261593  2627 layer_factory.hpp:77] Creating layer relu2
I0908 13:01:15.261602  2627 net.cpp:100] Creating Layer relu2
I0908 13:01:15.261607  2627 net.cpp:434] relu2 <- conv2
I0908 13:01:15.261613  2627 net.cpp:395] relu2 -> conv2 (in-place)
I0908 13:01:15.261747  2627 net.cpp:150] Setting up relu2
I0908 13:01:15.261755  2627 net.cpp:157] Top shape: 50 256 23 23 (6771200)
I0908 13:01:15.261759  2627 net.cpp:165] Memory required for data: 229241200
I0908 13:01:15.261762  2627 layer_factory.hpp:77] Creating layer pool2
I0908 13:01:15.261770  2627 net.cpp:100] Creating Layer pool2
I0908 13:01:15.261773  2627 net.cpp:434] pool2 <- conv2
I0908 13:01:15.261778  2627 net.cpp:408] pool2 -> pool2
I0908 13:01:15.261812  2627 net.cpp:150] Setting up pool2
I0908 13:01:15.261818  2627 net.cpp:157] Top shape: 50 256 11 11 (1548800)
I0908 13:01:15.261821  2627 net.cpp:165] Memory required for data: 235436400
I0908 13:01:15.261824  2627 layer_factory.hpp:77] Creating layer norm2
I0908 13:01:15.261831  2627 net.cpp:100] Creating Layer norm2
I0908 13:01:15.261834  2627 net.cpp:434] norm2 <- pool2
I0908 13:01:15.261838  2627 net.cpp:408] norm2 -> norm2
I0908 13:01:15.262092  2627 net.cpp:150] Setting up norm2
I0908 13:01:15.262102  2627 net.cpp:157] Top shape: 50 256 11 11 (1548800)
I0908 13:01:15.262105  2627 net.cpp:165] Memory required for data: 241631600
I0908 13:01:15.262109  2627 layer_factory.hpp:77] Creating layer conv3
I0908 13:01:15.262123  2627 net.cpp:100] Creating Layer conv3
I0908 13:01:15.262126  2627 net.cpp:434] conv3 <- norm2
I0908 13:01:15.262132  2627 net.cpp:408] conv3 -> conv3
I0908 13:01:15.284837  2627 net.cpp:150] Setting up conv3
I0908 13:01:15.284883  2627 net.cpp:157] Top shape: 50 384 9 9 (1555200)
I0908 13:01:15.284886  2627 net.cpp:165] Memory required for data: 247852400
I0908 13:01:15.284898  2627 layer_factory.hpp:77] Creating layer relu3
I0908 13:01:15.284919  2627 net.cpp:100] Creating Layer relu3
I0908 13:01:15.284924  2627 net.cpp:434] relu3 <- conv3
I0908 13:01:15.284929  2627 net.cpp:395] relu3 -> conv3 (in-place)
I0908 13:01:15.285153  2627 net.cpp:150] Setting up relu3
I0908 13:01:15.285164  2627 net.cpp:157] Top shape: 50 384 9 9 (1555200)
I0908 13:01:15.285167  2627 net.cpp:165] Memory required for data: 254073200
I0908 13:01:15.285171  2627 layer_factory.hpp:77] Creating layer conv4
I0908 13:01:15.285179  2627 net.cpp:100] Creating Layer conv4
I0908 13:01:15.285183  2627 net.cpp:434] conv4 <- conv3
I0908 13:01:15.285189  2627 net.cpp:408] conv4 -> conv4
I0908 13:01:15.287493  2635 blocking_queue.cpp:50] Waiting for data
I0908 13:01:15.302855  2627 net.cpp:150] Setting up conv4
I0908 13:01:15.302881  2627 net.cpp:157] Top shape: 50 384 7 7 (940800)
I0908 13:01:15.302886  2627 net.cpp:165] Memory required for data: 257836400
I0908 13:01:15.302893  2627 layer_factory.hpp:77] Creating layer relu4
I0908 13:01:15.302903  2627 net.cpp:100] Creating Layer relu4
I0908 13:01:15.302908  2627 net.cpp:434] relu4 <- conv4
I0908 13:01:15.302914  2627 net.cpp:395] relu4 -> conv4 (in-place)
I0908 13:01:15.303047  2627 net.cpp:150] Setting up relu4
I0908 13:01:15.303056  2627 net.cpp:157] Top shape: 50 384 7 7 (940800)
I0908 13:01:15.303058  2627 net.cpp:165] Memory required for data: 261599600
I0908 13:01:15.303062  2627 layer_factory.hpp:77] Creating layer conv5
I0908 13:01:15.303072  2627 net.cpp:100] Creating Layer conv5
I0908 13:01:15.303076  2627 net.cpp:434] conv5 <- conv4
I0908 13:01:15.303081  2627 net.cpp:408] conv5 -> conv5
I0908 13:01:15.315347  2627 net.cpp:150] Setting up conv5
I0908 13:01:15.315373  2627 net.cpp:157] Top shape: 50 256 5 5 (320000)
I0908 13:01:15.315377  2627 net.cpp:165] Memory required for data: 262879600
I0908 13:01:15.315389  2627 layer_factory.hpp:77] Creating layer relu5
I0908 13:01:15.315397  2627 net.cpp:100] Creating Layer relu5
I0908 13:01:15.315402  2627 net.cpp:434] relu5 <- conv5
I0908 13:01:15.315408  2627 net.cpp:395] relu5 -> conv5 (in-place)
I0908 13:01:15.315533  2627 net.cpp:150] Setting up relu5
I0908 13:01:15.315541  2627 net.cpp:157] Top shape: 50 256 5 5 (320000)
I0908 13:01:15.315543  2627 net.cpp:165] Memory required for data: 264159600
I0908 13:01:15.315546  2627 layer_factory.hpp:77] Creating layer pool5
I0908 13:01:15.315554  2627 net.cpp:100] Creating Layer pool5
I0908 13:01:15.315563  2627 net.cpp:434] pool5 <- conv5
I0908 13:01:15.315574  2627 net.cpp:408] pool5 -> pool5
I0908 13:01:15.315609  2627 net.cpp:150] Setting up pool5
I0908 13:01:15.315615  2627 net.cpp:157] Top shape: 50 256 2 2 (51200)
I0908 13:01:15.315618  2627 net.cpp:165] Memory required for data: 264364400
I0908 13:01:15.315621  2627 layer_factory.hpp:77] Creating layer fc6
I0908 13:01:15.315629  2627 net.cpp:100] Creating Layer fc6
I0908 13:01:15.315631  2627 net.cpp:434] fc6 <- pool5
I0908 13:01:15.315636  2627 net.cpp:408] fc6 -> fc6
I0908 13:01:15.418377  2627 net.cpp:150] Setting up fc6
I0908 13:01:15.418407  2627 net.cpp:157] Top shape: 50 4096 (204800)
I0908 13:01:15.418411  2627 net.cpp:165] Memory required for data: 265183600
I0908 13:01:15.418421  2627 layer_factory.hpp:77] Creating layer relu6
I0908 13:01:15.418429  2627 net.cpp:100] Creating Layer relu6
I0908 13:01:15.418434  2627 net.cpp:434] relu6 <- fc6
I0908 13:01:15.418440  2627 net.cpp:395] relu6 -> fc6 (in-place)
I0908 13:01:15.418767  2627 net.cpp:150] Setting up relu6
I0908 13:01:15.418777  2627 net.cpp:157] Top shape: 50 4096 (204800)
I0908 13:01:15.418781  2627 net.cpp:165] Memory required for data: 266002800
I0908 13:01:15.418783  2627 layer_factory.hpp:77] Creating layer drop6
I0908 13:01:15.418789  2627 net.cpp:100] Creating Layer drop6
I0908 13:01:15.418793  2627 net.cpp:434] drop6 <- fc6
I0908 13:01:15.418798  2627 net.cpp:395] drop6 -> fc6 (in-place)
I0908 13:01:15.418823  2627 net.cpp:150] Setting up drop6
I0908 13:01:15.418828  2627 net.cpp:157] Top shape: 50 4096 (204800)
I0908 13:01:15.418830  2627 net.cpp:165] Memory required for data: 266822000
I0908 13:01:15.418833  2627 layer_factory.hpp:77] Creating layer fc7
I0908 13:01:15.418840  2627 net.cpp:100] Creating Layer fc7
I0908 13:01:15.418844  2627 net.cpp:434] fc7 <- fc6
I0908 13:01:15.418848  2627 net.cpp:408] fc7 -> fc7
I0908 13:01:15.819300  2627 net.cpp:150] Setting up fc7
I0908 13:01:15.819334  2627 net.cpp:157] Top shape: 50 4096 (204800)
I0908 13:01:15.819337  2627 net.cpp:165] Memory required for data: 267641200
I0908 13:01:15.819345  2627 layer_factory.hpp:77] Creating layer relu7
I0908 13:01:15.819355  2627 net.cpp:100] Creating Layer relu7
I0908 13:01:15.819360  2627 net.cpp:434] relu7 <- fc7
I0908 13:01:15.819366  2627 net.cpp:395] relu7 -> fc7 (in-place)
I0908 13:01:15.819537  2627 net.cpp:150] Setting up relu7
I0908 13:01:15.819545  2627 net.cpp:157] Top shape: 50 4096 (204800)
I0908 13:01:15.819548  2627 net.cpp:165] Memory required for data: 268460400
I0908 13:01:15.819552  2627 layer_factory.hpp:77] Creating layer drop7
I0908 13:01:15.819557  2627 net.cpp:100] Creating Layer drop7
I0908 13:01:15.819561  2627 net.cpp:434] drop7 <- fc7
I0908 13:01:15.819566  2627 net.cpp:395] drop7 -> fc7 (in-place)
I0908 13:01:15.819589  2627 net.cpp:150] Setting up drop7
I0908 13:01:15.819594  2627 net.cpp:157] Top shape: 50 4096 (204800)
I0908 13:01:15.819597  2627 net.cpp:165] Memory required for data: 269279600
I0908 13:01:15.819600  2627 layer_factory.hpp:77] Creating layer fc8
I0908 13:01:15.819607  2627 net.cpp:100] Creating Layer fc8
I0908 13:01:15.819612  2627 net.cpp:434] fc8 <- fc7
I0908 13:01:15.819615  2627 net.cpp:408] fc8 -> fc8
I0908 13:01:15.916476  2627 net.cpp:150] Setting up fc8
I0908 13:01:15.916508  2627 net.cpp:157] Top shape: 50 1000 (50000)
I0908 13:01:15.916512  2627 net.cpp:165] Memory required for data: 269479600
I0908 13:01:15.916522  2627 layer_factory.hpp:77] Creating layer fc8_fc8_0_split
I0908 13:01:15.916529  2627 net.cpp:100] Creating Layer fc8_fc8_0_split
I0908 13:01:15.916534  2627 net.cpp:434] fc8_fc8_0_split <- fc8
I0908 13:01:15.916541  2627 net.cpp:408] fc8_fc8_0_split -> fc8_fc8_0_split_0
I0908 13:01:15.916549  2627 net.cpp:408] fc8_fc8_0_split -> fc8_fc8_0_split_1
I0908 13:01:15.916582  2627 net.cpp:150] Setting up fc8_fc8_0_split
I0908 13:01:15.916587  2627 net.cpp:157] Top shape: 50 1000 (50000)
I0908 13:01:15.916591  2627 net.cpp:157] Top shape: 50 1000 (50000)
I0908 13:01:15.916594  2627 net.cpp:165] Memory required for data: 269879600
I0908 13:01:15.916604  2627 layer_factory.hpp:77] Creating layer accuracy
I0908 13:01:15.917098  2627 net.cpp:100] Creating Layer accuracy
I0908 13:01:15.917110  2627 net.cpp:434] accuracy <- fc8_fc8_0_split_0
I0908 13:01:15.917115  2627 net.cpp:434] accuracy <- label_data_1_split_0
I0908 13:01:15.917120  2627 net.cpp:408] accuracy -> accuracy
…
